image_classification/cifar_net.pth (torch, 251277 bytes, 10 tensors)

conv1.weight f4 [6, 3, 5, 5]
-0.18505399 0.101184435 0.018592719 -0.020500181 0.2050153 -0.11869212 0.31719357 0.17142048
-0.3682623 0.07652717 -0.27471223 0.36273694 0.42718944 -0.35253832 -0.19183923 -0.034194246
0.2530604 0.29830408 -0.20970193 -0.28224882 0.040877208 0.02582984 0.114441454 -0.12027554
-0.035668544 -0.024300816 0.18811767 -0.06633785 -0.26305994 -0.02906233 -0.030015454 0.30961373
0.26660308 -0.42117596 -0.22924802 -0.13560031 0.3758506 0.43206197 -0.37663218 -0.32533985
-0.028593834 0.36601532 0.22698666 -0.23876365 -0.2835366 0.07640672 0.07023871 0.21404417
-0.23847134 -0.16140181 -0.19329233 0.07663707 0.08311779 -0.23989257 0.012222787 -0.07800162
0.28165314 0.26166773 -0.35500216 -0.11155225 -0.1579689 0.43358862 0.4317205 -0.410534
-0.3313729 0.01812912 0.16877942 0.38276178 -0.17940609 -0.23659328 -0.101435855 0.09053333
0.14593674 -0.026788732 -0.017155174 0.23234479 0.45949128 0.3741454 0.3999818 0.29610828
0.07989214 0.33018175 0.4029745 0.36928025 0.20593584 -0.0977331 0.22596082 0.28977147
0.22871281 0.27757993 -0.32136744 0.0048717 0.10692849 0.06614381 0.08289536 -0.3944576
-0.19836584 -0.13238166 -0.18901916 -0.2523808 -0.24272788 -0.05794565 -0.12468857 -0.055485267
-0.16900316 -0.2792345 -0.0980382 -0.11422873 -0.188161 -0.3330805 -0.22732511 -0.11381576
-0.113666415 -0.18896559 -0.2675991 -0.36607245 -0.09780333 -0.15265232 -0.19054049 -0.08107258
-0.22042416 -0.036192227 -0.2028947 -0.22486556 -0.041292284 -0.022828024 -0.000118938675 0.023398956
-0.030531233 -0.1573689 -0.1356914 -0.13525388 -0.16995546 -0.18867135 -0.13782538 -0.10439214
-0.056528095 0.06309247 -0.016030757 -0.04884255 0.1992901 0.16018361 0.21454889 0.26099244
0.17992991 0.15799138 0.22666141 0.31169394 0.21248199 0.16685212 -0.08131792 -0.124653265
-0.03837553 -0.016951129 0.0731123 -0.14151976 -0.22790885 -0.009618806 -0.11046823 0.09758188
-0.1291246 -0.029160596 0.03693322 0.037450507 -0.03442215 0.04578785 -0.12059415 0.120631404
-0.019370172 0.10991246 0.030627165 -0.00048388276 0.035994623 -0.046731204 -0.020231104 -0.23379156
-0.1621089 -0.15940547 -0.03244711 -0.022456398 -0.22333668 -0.10944519 -0.054812506 0.11486344
0.06001806 -0.3005658 -0.15754572 -0.10580071 0.07557731 0.087424375 -0.22632496 -0.051362474
0.044871382 -0.039467834 0.00021481223 -0.19510444 -0.018154 -0.054727208 0.06934415 0.116741665
-0.01702774 0.043605912 0.1091648 0.34961417 0.32364553 -0.038795467 0.019220918 0.20461892
0.28375328 0.14623098 -0.13605265 0.050235953 0.19198053 0.3062503 0.30134314 -0.12947193
0.061905682 0.085146286 0.2846012 0.1341313 -0.04799662 0.17145833 0.17543821 0.23031807
0.18803416 -0.061607327 -0.025082283 -0.03445692 0.078577645 0.17633967 -0.19497205 -0.3636751
-0.32757035 -0.38509262 -0.35120457 -0.027055332 0.10091074 0.029661665 -0.09859158 -0.08206155
0.07002884 0.10709858 0.06350851 0.09869102 -0.06587833 -0.2342731 -0.09986374 -0.29375148
-0.22439279 -0.15464197 0.110398844 -0.037450887 0.037375867 0.08869975 0.06580397 -0.16792284
00000000: cb7e 3dbe c939 cf3d c24f 983c ffef a7bc
00000010: 88ef 513e db14 f3bd 3267 a23e da88 2f3e
00000020: e08c bcbe 47ba 9c3d 15a7 8cbe a8b8 b93e
00000030: 93b8 da3e e77f b4be 8171 44be 440f 0cbd
00000040: 2291 813e 50bb 983e 1abc 56be eb82 90be
00000050: dc6e 273d 1a99 d33c 4860 ea3d 0653 f6bd
00000060: 2e19 12bd 8112 c7bc eba1 403e 24dc 87bd
00000070: cbaf 86be 2014 eebc f8e2 f5bc b185 9e3e
00000080: 3380 883e 60a4 d7be febf 6abe cfda 0abe
00000090: 7d6f c03e 3a37 dd3e efd5 c0be f292 a6be
000000a0: 9e3d eabc 5c66 bb3e 316f 683e 757e 74be
000000b0: b62b 91be 207b 9c3d 50d9 8f3d 652e 5b3e
000000c0: d531 74be 8446 25be 6dee 45be e5f3 9c3d
000000d0: a939 aa3d 66a6 75be 1642 483c 50bf 9fbd
000000e0: d734 903e 50f9 853e d8c2 b5be 8275 e4bd
000000f0: 99c2 21be 54ff dd3e 780a dd3e 8331 d2be
00000100: b5a9 a9be 8583 943c 83d4 2c3e 5af9 c33e
00000110: 3bb6 37be 8245 72be 9abd cfbd 8a69 b93d
00000120: 7170 153e 0b74 dbbc 0289 8cbc cbeb 6d3e
00000130: 7142 eb3e fc8f bf3e 6aca cc3e 819b 973e
00000140: 7e9e a33d 950d a93e ac52 ce3e 4d12 bd3e
00000150: d8e0 523e 4b28 c8bd 4662 673e ed5c 943e
00000160: b133 6a3e f51e 8e3e 468a a4be c8a2 9f3b
00000170: 53fd da3d 6876 873d 0bc5 a93d 59f6 c9be
00000180: 6a20 4bbe 0f8f 07be 3d8e 41be 0e38 81be
00000190: a88d 78be 6b58 6dbd b95c ffbd 8544 63bd
000001a0: 2a0f 2dbe d3f7 8ebe 40c8 c8bd c1f0 e9bd
000001b0: 47ad 40be 8789 aabe eac7 68be 3d18 e9bd
000001c0: f0c9 e8bd 3280 41be c002 89be d96d bbbe
000001d0: 1d4d c8bd e450 1cbe 0c1d 43be 6109 a6bd
000001e0: dfb6 61be 4d3e 14bd a1c3 4fbe 2843 66be
000001f0: 1922 29bd d601 bbbc b76e f9b8 2baf bf3c
00000200: a31c fabc 5025 21be b0f2 0abe fe7f 0abe
00000210: ce08 2ebe 1033 41be 1922 0dbe 8ccb d5bd
00000220: 018a 67bd a036 813d ef52 83bc 200f 48bd
00000230: b412 4c3e 2c07 243e b4b2 5b3e cda0 853e
00000240: 8c3f 383e 7ec8 213e ee19 683e 5996 9f3e
00000250: e194 593e 48db 2a3e 028a a6bd 364a ffbd
00000260: a92f 1dbd 18dd 8abc e7bb 953d 8eea 10be
00000270: f060 69be 3298 1dbc 2b3d e2bd 02d9 c73d
00000280: 3d39 04be 34e2 eebc 4a47 173d b465 193d
00000290: 3efe 0cbd 0a8c 3b3d 11fa f6bd 990d f73d
000002a0: 32ae 9ebc c919 e13d d2e5 fa3c a5b1 fdb9
000002b0: 196f 133d 3869 3fbd b3bb a5bc 0e67 6fbe
000002c0: e0ff 25be 303b 23be 43e7 04bd 7bf6 b7bc
000002d0: 5fb2 64be cd24 e0bd 1483 60bd 863d eb3d
000002e0: 7fd5 753d c3e3 99be aa53 21be 0bae d8bd
000002f0: 47c8 9a3d 8d0b b33d bbc1 67be 7561 52bd
00000300: 0ecb 373d 06a9 21bd 383f 6139 75c9 47be
00000310: b3b7 94bc a329 60bd 4e04 8e3d 4116 ef3d
00000320: c27d 8bbc 1d9c 323d cb91 df3d a100 b33e
00000330: deb4 a53e ffe7 1ebd 3075 9d3c 9f87 513e
00000340: 1c48 913e 93bd 153e 6351 0bbe 37c4 4d3d
00000350: 8b96 443e d7cc 9c3e a649 9a3e 4a94 04be
00000360: d090 7d3d 2d61 ae3d 40b7 913e b759 093e
00000370: 1b98 44bd c692 2f3e 13a6 333e 80d8 6b3e
00000380: 078c 403e f757 7cbd 5c79 cdbc b322 0dbd
00000390: 51ed a03d 6392 343e c1a6 47be 9f33 babe
000003a0: 4db7 a7be dc2a c5be 16d1 b3be 25a3 ddbc
000003b0: 4aaa ce3d 05fd f23c 62ea c9bd e30f a8bd
000003c0: 486b 8f3d 8056 db3d c010 823d 841e ca3d
000003d0: 38eb 86bd 4ae5 6fbe 5c85 ccbd 9866 96be
000003e0: 39c7 65be 775a 1ebe ca18 e23d 1a66 19bd
000003f0: 7017 193d 37a8 b53d 3bc4 863d f7f3 2bbe

conv1.bias f4 [6]
-0.2612885 -0.42365927 0.33207798 0.055044293 -0.433186 -0.081926905
00000000: 9bc7 85be dee9 d8be 2006 aa3e 2076 613d
00000010: 8eca ddbe 4bc9 a7bd

conv2.weight f4 [16, 6, 5, 5]
-0.116718955 -0.105535656 0.019193014 -0.08117619 0.0845821 -0.024875682 -0.13713558 0.1045258
-0.039927885 0.15308437 0.19936848 -0.121068366 0.26640677 -0.12480428 0.27597108 0.3591488
-0.18154626 0.17322558 -0.09966642 0.20607504 0.048629466 -0.18477811 -0.06973272 -0.20585291
-0.21603629 0.09520849 0.06845994 0.001223652 0.04822384 0.07509973 0.10528993 0.028070431
0.04801982 0.08842966 -0.007937023 -0.04371761 0.13929398 0.0038655528 0.021503223 0.12721784
-0.12976588 0.12127122 0.19789681 0.12751968 0.14691988 -0.2610507 -0.19492054 -0.057500057
-0.081286766 -0.0138283875 -0.039120674 -0.043062754 0.022177158 -0.033792805 0.0107540265 -0.00076056336
-0.011908367 -0.06809219 0.020292934 0.093560904 -0.10360413 0.06334061 -0.11909318 0.05769523
-0.09474884 -0.24188058 0.008248608 -0.14723483 -0.04598035 -0.0038228435 -0.24821974 -0.23850273
-0.19554237 -0.21479842 -0.08545368 -0.029567309 0.090045586 0.09062184 0.07706428 0.07571611
-0.07244959 0.057195295 0.081795886 0.054670356 -0.018916083 -0.12498038 -0.024328444 0.07342584
0.015775988 -0.016327012 -0.0027705973 0.1742023 0.378589 0.18902616 0.059489638 -0.17824143
-0.086660154 -0.004281125 -0.0018333171 -0.06071756 0.18009819 -0.036124405 -0.06624291 -0.11598583
-0.07924035 0.014437961 0.014509672 -0.10280275 -0.09852884 -0.04612627 0.07040806 0.028298486
-0.018447587 -0.12459467 -0.10600001 -0.15022622 0.01594564 0.16227327 0.14796388 0.12517956
-0.0758256 0.042149138 0.25131884 0.20141624 0.24837457 0.0039938763 -0.047909062 0.04641446
-0.022083726 -0.062032234 -0.06418263 -0.25070295 -0.09375387 -0.1695612 -0.17189194 0.014207948
-0.19048332 -0.03711113 -0.2798944 -0.24473085 0.06485226 -0.09944516 -0.0948165 -0.06726355
-0.1404836 0.1479753 0.34828904 0.17758933 0.1533374 -0.08549245 -0.10429488 -0.11610034
-0.13310325 -0.10521848 -0.07544466 -0.116638675 -0.1644834 -0.105663866 0.040064044 0.053198453
-0.13166095 -0.073312506 -0.124011815 0.11920445 0.16898471 -0.1793567 -0.014613306 -0.05639898
0.118714355 0.057150386 -0.21397349 -0.043986354 -0.04875568 0.16907366 0.10895254 -0.15866788
-0.2545846 -0.20454194 -0.17587832 -0.1255017 -0.18916048 -0.218829 -0.16909151 -0.050983123
-0.09166731 -0.05612948 -0.059953857 -0.06736297 -0.11973695 -0.15464893 -0.04746048 -0.11520599
-0.15349476 -0.08008798 -0.035107113 -0.027314179 -0.07853227 -0.082852386 0.033612724 -0.087308556
0.0709374 -0.053009655 0.032292143 0.07956411 0.00801457 0.02212542 -0.07798577 -0.087522656
0.04522067 -0.019065596 0.020662358 0.006620097 -0.047197692 -0.06378455 -0.006098432 0.053581994
-0.13503675 -0.14612259 -0.100694835 0.019965464 -0.010662769 -0.04213263 -0.019361729 -0.0037237285
-0.09626165 0.16643694 -0.027453091 0.004288909 0.06717131 -0.010089079 0.12745905 -0.044559892
-0.0035968763 0.0160532 -0.0099919215 -0.02058684 0.07399975 0.037344117 0.060355652 -0.10005393
0.13096325 0.042355247 -0.087984346 0.004435507 -0.02524585 0.114448756 0.12941176 0.17188683
0.1593591 0.03676875 -0.05763809 -0.044868626 0.04041761 0.04109204 0.19782399 -0.09672973
00000000: 590a efbd 1423 d8bd ab3a 9d3c b43f a6bd
00000010: 6139 ad3d 16c8 cbbc 456d 0cbe 9f11 d63d
00000020: 6c8b 23bd 26c2 1c3e 4027 4c3e b1f2 f7bd
00000030: 7866 883e 6399 ffbd 154c 8d3e 5ae2 b73e
00000040: 43e7 39be 0c62 313e e81d ccbd 5605 533e
00000050: b12f 473d 7936 3dbe 07d0 8ebd 1bcb 52be
00000060: 9e38 5dbe abfc c23d ba34 8c3d f362 a03a
00000070: 5c86 453d e3cd 993d 3fa2 d73d f6f3 e53c
00000080: 6eb0 443d 9c1a b53d 4a0a 02bc 3d11 33bd
00000090: 15a3 0e3e 3755 7d3b 8727 b03c 6545 023e
000000a0: 59e1 04be 0c5d f83d 76a5 4a3e 8594 023e
000000b0: 2a72 163e 70a8 85be 4099 47be 2e85 6bbd
000000c0: ad79 a6bd 7690 62bc 003d 20bd 9262 30bd
000000d0: dfac b53c 536a 0abd a831 303c 8b60 47ba
000000e0: 501b 43bc eb73 8bbd 5e3d a63c dc9c bf3d
000000f0: 672e d4bd b9b8 813d 20e7 f3bd d551 6c3d
00000100: ae0b c2bd 8baf 77be 2b25 073c bac4 16be
00000110: e455 3cbd ac88 7abb 512d 7ebe 0f3a 74be
00000120: 423c 48be 1ef4 5bbe 5702 afbd 2437 f2bc
00000130: d269 b83d f197 b93d e1d3 9d3d 0c11 9b3d
00000140: 7360 94bd 9d45 6a3d 9a84 a73d 06ee 5f3d
00000150: e7f5 9abc b7f5 ffbd 724c c7bc 4960 963d
00000160: a53c 813c 3ac0 85bc e992 35bb 1662 323e
00000170: 6bd6 c13e 1390 413e 68ab 733d ec84 36be
00000180: e17a b1bd ae48 8cbb ea4b f0ba fab2 78bd
00000190: a96b 383e 2ff7 13bd 5daa 87bd fb89 edbd
000001a0: c448 a2bd 338d 6c3c fab9 6d3c 408a d2bd
000001b0: 7dc9 c9bd e6ee 3cbd 1a32 903d 3ad2 e73c
000001c0: 651f 97bc 7e2b ffbd 8916 d9bd e7d4 19be
000001d0: 6ea0 823c f72a 263e d883 173e 122f 003e
000001e0: 744a 9bbd 93a4 2c3d ddac 803e 0f40 4e3e
000001f0: e755 7e3e 10df 823b 4b3c 44bd 171d 3e3d
00000200: eee8 b4bc 8315 7ebd 2f72 83bd 235c 80be
00000210: 0702 c0bd 74a1 2dbe 7104 30be 74c8 683c
00000220: 0f0e 43be d701 18bd 524e 8fbe b99a 7abe
00000230: 43d1 843d e7a9 cbbd 272f c2bd 79c1 89bd
00000240: efda 0fbe d686 173e f152 b23e fad9 353e
00000250: 7b04 1d3e aa16 afbd 8e98 d5bd 04c6 edbd
00000260: 384c 08be c97c d7bd bb82 9abd 42e0 eebd
00000270: 566e 28be 4c66 d8bd 321a 243d 9fe6 593d
00000280: 21d2 06be de24 96bd e8f9 fdbd 7621 f43d
00000290: 540a 2d3e 48a9 37be a66c 6fbc 9e02 67bd
000002a0: 8320 f33d 8616 6a3d de1b 5bbe 092b 34bd
000002b0: 09b4 47bd a521 2d3e 8222 df3d d579 22be
000002c0: ea58 82be 7173 51be 7219 34be 8583 00be
000002d0: 49b3 41be b614 60be 5326 2dbe aed3 50bd
000002e0: 12bc bbbd 07e8 65bd 2d92 75bd 99f5 89bd
000002f0: a538 f5bd 4a5c 1ebe ec65 42bd 1ef1 ebbd
00000300: bb2d 1dbe 2b05 a4bd 7acc 0fbd fcc1 dfbc
00000310: 87d5 a0bd 83ae a9bd 7fad 093d d4ce b2bd
00000320: a147 913d a720 59bd c444 043d 82f2 a23d
00000330: 8b4f 033c 5e40 b53c 01b7 9fbd 143f b3bd
00000340: 4f39 393d 742f 9cbc 1b44 a93c 66ed d83b
00000350: 5e52 41bd 79a1 82bd 5bd5 c7bb cb78 5b3d
00000360: 1347 0abe 29a1 15be 1839 cebd 9d8e a33c
00000370: e5b2 2ebc 4493 2cbd 7d9c 9ebc cc09 74bb
00000380: d424 c5bd 726e 2a3e 4ee5 e0bc fa89 8c3b
00000390: 1d91 893d aa4c 25bc a084 023e 6f84 36bd
000003a0: 92b9 6bbb 0082 833c 28b5 23bc bca5 a8bc
000003b0: 2e8d 973d 25f6 183d 7d37 773d 13e9 ccbd
000003c0: 3b1b 063e b27c 2d3d 2331 b4bd bb57 913b
000003d0: 63d0 cebc 1c64 ea3d 8484 043e 1a03 303e
000003e0: 082f 233e d49a 163d eb15 6cbd 2ac8 37bd
000003f0: f08c 253d 2050 283d 5f92 4a3e 3d1a c6bd

conv2.bias f4 [16]
-0.4542227 0.3082035 -0.0022193936 -0.1038423 -0.097527266 -0.31178924 0.03719136 0.36902356
0.09192171 1.0628952 0.61394167 -0.525923 -0.29789293 0.5570234 -0.16239192 -0.0846252
00000000: e18f e8be d9cc 9d3e 3f73 11bb 46ab d4bd
00000010: 60bc c7bd d7a2 9fbe f855 183d a8f0 bc3e
00000020: 7341 bc3d f30c 883f 482b 1d3f e4a2 06bf
00000030: 6c85 98be 1699 0e3f 114a 26be fa4f adbd

fc1.weight f4 [120, 400]
-0.012649111 0.01734106 -0.017211111 0.047987986 -0.0060148747 0.012031824 0.011890634 0.034022134
0.013604658 0.024886308 -0.022548256 0.016656794 0.036647987 0.021893417 0.008839707 -0.053685073
-0.020593602 -0.01321609 0.010684985 -0.04286626 -0.058712043 -0.040005647 -0.105700485 -0.019588161
-0.08044949 0.07231408 0.0066607227 0.0010459464 -0.014407433 0.08240106 -0.029366905 0.018644538
0.027799372 0.009777604 0.044548485 -0.04299291 -0.057156544 0.008552597 0.03705412 -0.07224483
0.062061563 0.04676837 -0.0011931881 0.039548278 0.021849558 -0.005555205 -0.022645775 0.030654464
0.059698377 0.050731752 0.051426668 -0.0098844115 -0.01795199 0.0125432145 0.02390385 0.015425167
0.08000791 0.037577145 0.0326929 0.05217183 0.09778537 0.069289066 0.035406888 -0.03651157
0.035921928 -0.02691938 -0.054866802 -0.038109627 0.030448887 0.011194686 -0.025016924 -0.017955566
0.050636496 0.033957124 -0.030960733 0.020164965 -0.008323571 0.04743558 -0.049968697 0.08257063
0.04413081 0.051884264 0.0030691768 3.6424008e-05 -0.032554653 0.08306904 0.09273188 -0.020562818
-0.06715575 -0.056962814 0.025264403 0.0067957263 0.024041725 0.02358723 0.036934257 0.0024027545
-0.01826827 0.050612967 0.012308689 -0.03008447 0.076728866 0.03306365 -0.03394161 0.0257769
0.06880447 0.005320838 0.0012273651 0.031257432 0.06518639 -0.029913574 -0.023889784 -0.00072329387
0.001361628 -0.011480175 -0.021706121 -0.037736062 -0.089989446 0.0012332043 0.03274897 0.04638951
0.017274199 -0.059045397 -0.04469473 -0.03214743 0.09340257 0.0012265041 -0.035123363 0.01389828
-0.03232033 0.03430276 -0.019835304 -0.015796399 -0.026712397 -0.03680808 0.025309235 0.049200006
-0.031784452 0.035478193 0.009437811 0.04568066 -0.012544761 -0.046747744 -0.008613571 -0.022563897
-0.011392015 -0.017720751 -0.008802535 0.033598375 0.0811228 0.022089658 -0.051299945 -0.0030223287
0.09248107 0.09545556 0.017716855 0.014666519 -0.086392336 0.07691874 0.056443855 -0.01250365
0.038618222 0.014301232 0.014490872 0.028324364 -0.06438003 0.03647828 -0.026369682 0.014981901
0.007392767 -0.06474005 0.05708069 0.046855308 0.035925798 -0.06165191 -0.14950866 0.0016629274
-0.042156506 0.012226191 -0.01563654 -0.014949552 0.02914877 0.029922 -0.02016355 0.058252823
0.0032323285 -0.0056807115 0.02111603 -0.021008827 0.056289352 0.110916 0.003039756 0.038900446
-0.01970233 -0.017162997 0.07708593 0.012801206 -0.02733527 0.017762594 0.015072568 0.017328477
0.00039734718 0.028212706 0.022363123 0.026819643 -0.0013664729 -0.0016748889 -0.035828967 -0.031918418
0.052782275 -0.028625822 0.023671867 -0.016557679 0.004765248 -0.016573139 0.026328258 -0.02726098
0.017766545 -0.04391626 -0.019900277 -0.047348954 0.043467358 -0.0066065397 -0.009777085 0.02665156
-0.02254199 0.013889802 -0.055084392 -0.013954434 -0.00075268437 -0.004350354 -0.03506483 -0.031411823
-0.010272978 -0.07127775 -0.0034661384 0.02032094 0.034254488 -0.0167669 0.0060221376 -0.002670909
0.022466244 0.023238761 0.02114033 -0.01626325 -0.007098895 0.02778691 0.021702364 0.099792704
0.020402618 0.075978875 -0.029075414 0.017400315 0.035612788 -0.03478172 0.005555278 -0.040925864
00000000: 383e 4fbc d70e 8e3c 51fe 8cbc 0d8f 443d
00000010: 6d18 c5bb 2121 453c efd0 423c cb5a 0b3d
00000020: 12e6 5e3c 5fde cb3c 1fb7 b8bc d473 883c
00000030: 331c 163d d359 b33c 6bd4 103c e1e4 5bbd
00000040: eab3 a8bc 4d88 58bc 1310 2f3c 8894 2fbd
00000050: 0a7c 70bd f6dc 23bd 7f79 d8bd 5a77 a0bc
00000060: b4c2 a4bd 6819 943d 3142 da3b 2318 893a
00000070: 270d 6cbc e3c1 a83d dd92 f0bc 6ebc 983c
00000080: 82bb e33c 3e32 203c 7978 363d 5519 30bd
00000090: fb1c 6abd 3120 0c3c 10c6 173d 19f5 93bd
000000a0: 4434 7e3d 3190 3f3d c064 9cba 60fd 213d
000000b0: d8fd b23c 7008 b6bb a283 b9bc 121f fb3c
000000c0: 4986 743d 19cc 4f3d c5a4 523d 3af2 21bc
000000d0: 0d10 93bc 0e82 4d3c 02d2 c33c d7b9 7c3c
000000e0: 30db a33d 7eea 193d fee8 053d 21b2 553d
000000f0: b243 c83d 6de7 8d3d d006 113d 288d 15bd
00000100: df22 133d 0886 dcbc 03bc 60bd d718 1cbd
00000110: f26f f93c eb69 373c 4bf0 ccbc 8d17 93bc
00000120: 3768 4f3d a016 0b3d 5da1 fdbc ff30 a53c
00000130: 965f 08bc d04b 423d faab 4cbd ca1a a93d
00000140: 82c2 343d 9884 543d 3e24 493b fbc5 1838
00000150: 0758 05bd 1a20 aa3d 36ea bd3d 5b73 a8bc
00000160: f488 89bd d751 69bd 4bf7 ce3c afae de3b
00000170: 27f3 c43c 023a c13c 6048 173d 8877 1d3b
00000180: 57a7 95bc 8b4f 4f3d 62aa 493c b573 f6bc
00000190: 0624 9d3d c06d 073d 5c06 0bbd 142a d33c
000001a0: 5ce9 8c3d 6d5a ae3b 8adf a03a cb07 003d
000001b0: 7180 853d 500d f5bc 82b4 c3bc 6e9b 3dba
000001c0: a778 b23a 5817 3cbc 09d1 b1bc 2191 1abd
000001d0: 634c b8bd 78a3 a13a c923 063d ed02 3e3d
000001e0: 9f82 8d3c 96d9 71bd d211 37bd 06ad 03bd
000001f0: d949 bf3d a6c2 a03a 84dd 0fbd 9db5 633c
00000200: 5362 04bd 0d81 0c3d a67d a2bc 7367 81bc
00000210: f5d3 dabc 12c4 16bd 5055 cf3c f285 493d
00000220: 6a30 02bd 9551 113d 0ca1 1a3c a51b 3b3d
00000230: 8b88 4dbc 907a 3fbd ef1f 0dbc ecd7 b8bc
00000240: 93a5 3abc 1c2b 91bc 8238 10bc 739e 093d
00000250: b623 a63d 5ff5 b43c e41f 52bd 4312 46bb
00000260: b766 bd3d 347e c33d f022 913c d74b 703c
00000270: 77ee b0bd 9387 9d3d ac31 673d 1cdc 4cbc
00000280: 242e 1e3d b74f 6a3c 1f6b 6d3c 7f08 e83c
00000290: add9 83bd 406a 153d 3b05 d8bc a676 753c
000002a0: 063f f23b 6e96 84bd 71cd 693d 5aeb 3f3d
000002b0: ee26 133d b786 7cbd cc18 19be 96f6 d93a
000002c0: 4dac 2cbd 5d50 483c 3318 80bc f7ee 74bc
000002d0: 67c9 ee3c fb1e f53c 072e a5bc 839a 6e3d
000002e0: 79d5 533b 4325 babb 86fb ac3c b41a acbc
000002f0: aa8f 663d ee27 e33d a536 473b 1356 1f3d
00000300: c866 a1bc 6a99 8cbc 3adf 9d3d 26bc 513c
00000310: 37ee dfbc dc82 913c eff2 763c 73f4 8d3c
00000320: 0953 d039 551e e73c de32 b73c deb4 db3c
00000330: 391b b3ba f287 dbba 65c1 12bd e3bc 02bd
00000340: 3a32 583d b380 eabc 81eb c13c f8a3 87bc
00000350: cc25 9c3b 64c4 87bc 5cae d73c 6b52 dfbc
00000360: 258b 913c 89e1 33bd e805 a3bc faf0 41bd
00000370: d40a 323d ac7b d8bb 1130 20bc 5f54 da3c
00000380: fba9 b8bc 0d92 633c 2ca0 61bd 23a1 64bc
00000390: cb4f 45ba 6a8d 8ebb 24a0 0fbd afa9 00bd
000003a0: fe4f 28bc 12fa 91bd 2728 63bb 1a78 a63c
000003b0: 6f4e 0c3d bd5a 89bc 5a55 c53b 6b0a 2fbb
000003c0: 210b b83c 375f be3c 7c2e ad3c 823a 85bc
000003d0: d99d e8bb 60a1 e33c 28c9 b13c 1e60 cc3d
000003e0: 6423 a73c d09a 9b3d 902f eebc 1b8b 8e3c
000003f0: b7de 113d 4777 0ebd 0d09 b63b e1a1 27bd

fc1.bias f4 [120]
-0.048793215 -0.0641195 0.0596456 0.076664254 0.09130892 0.04108553 -0.06111455 0.19160958
0.051218558 -0.11215839 0.05497664 0.05061796 0.03752161 0.06662336 -0.035393775 0.0043792534
-0.0055155177 0.0072661084 -0.0035388446 0.017962558 0.012023454 -0.0008726552 0.055595666 0.0017900488
0.14078072 0.041869216 -0.05520641 -0.055757955 -0.0016314739 -0.006557995 -0.07662741 -0.04157211
0.030809885 -0.0048807603 -0.074977815 0.07137361 -0.094682954 0.036055323 0.1233218 -0.041231226
0.040118314 -0.0051506325 -0.039814286 -0.004346611 0.04495767 0.05775366 0.0009629021 -0.06667319
-0.050130047 -0.023968695 0.03149871 0.07009675 -0.043659713 -0.16530688 0.12903091 -0.11093466
0.005958954 -0.09646037 -0.08185684 -0.07270219 0.18819824 -0.045270287 0.034510806 -0.04483684
0.030710356 0.16417849 0.026053265 0.0036015913 0.13014129 0.0195717 -0.09479147 -0.09062501
0.033354566 -0.015483528 0.021185309 0.004157964 0.1414671 0.018163674 0.021992479 0.03930938
0.061995257 0.06994482 -0.032358482 -0.018496215 0.16299106 0.10529946 0.15883449 -0.05231029
-0.10437657 0.0044550467 -0.026256729 -0.00861098 0.23931088 0.14884387 0.1001002 -0.0683173
-0.07482587 0.01866607 -0.090161406 0.09115257 -0.0033224572 0.12906626 0.032318715 -0.06532079
-0.030930651 0.19028813 -0.0060198065 0.031750787 -0.050159797 -0.10628646 -0.06527966 0.08350326
0.012768011 0.047320355 0.15933315 -0.10631938 0.004236289 -0.046496786 -0.09715838 0.09424556
00000000: 65db 47bd 1651 83bd f24e 743d 2602 9d3d
00000010: 2c00 bb3d 4d49 283d 4053 7abd 4d35 443e
00000020: 8dca 513d 4cb3 e5bd 2f2f 613d c754 4f3d
00000030: 42b0 193d d471 883d 10f9 10bd d77f 8f3b
00000040: 84bb b4bb 8918 ee3b f6eb 67bb 3726 933c
00000050: 05fe 443c e6c2 64ba 48b8 633d 12a0 ea3a
00000060: d228 103e 0e7f 2b3d 1e20 62bd 7462 64bd
00000070: 2ed7 d5ba 73e4 d6bb d5ee 9cbd 8447 2abd
00000080: 0365 fc3c c9ee 9fbb f88d 99bd 542c 923d
00000090: 23e9 c1bd bfae 133d 2490 fc3d 13e2 28bd
000000a0: 1a53 243d a3c6 a8bb 4e14 23bd 046e 8ebb
000000b0: 8925 383d 1a8f 6c3d 446b 7c3a f48b 88bd
000000c0: 2a55 4dbd ff59 c4bc cb04 013d e38e 8f3d
000000d0: 87d4 32bd 3546 29be ae20 043e b631 e3bd
000000e0: 5443 c33b 048d c5bd 8fa4 a7bd e3e4 94bd
000000f0: 0ab7 403e 566d 39bd 345b 0d3d d6a6 37bd
00000100: 4994 fb3c 681e 283e a86d d53c ad08 6c3b
00000110: c243 053e d454 a03c 0822 c2bd 9b99 b9bd
00000120: cc9e 083d a0ae 7dbc d08c ad3c 883f 883b
00000130: c0dc 103e fccb 943c 9229 b43c df02 213d
00000140: bdee 7d3d 3b3f 8f3d 548a 04bd 6085 97bc
00000150: 21e7 263e 3ea7 d73d 82a5 223e 5143 56bd
00000160: 62c3 d5bd a4fb 913b 5a18 d7bc 1115 0dbc
00000170: e90d 753e 876a 183e 5501 cd3d f1e9 8bbd
00000180: 4e3e 99bd 96e9 983c 8ba6 b8bd 33ae ba3d
00000190: 95bd 59bb f229 043e a160 043d e8c6 85bd
000001a0: 4762 fdbc e4da 423e cc41 c5bb 1d0d 023d
000001b0: 5c74 4dbd b7ac d9bd 58b1 85bd c203 ab3d
000001c0: eb30 513c fdd2 413d 3b28 233e fabd d9bd
000001d0: 91d0 8a3b 6a73 3ebd f9fa c6bd d103 c13d

fc2.weight f4 [84, 120]
0.06625684 0.0034405196 0.066355646 -0.080607004 0.06038054 -0.061031964 0.039159097 0.06286918
0.05371534 -0.046205282 -0.062300503 -0.0702442 -0.07879706 -0.08662233 -0.01758866 -0.021003246
0.011718044 -0.061052125 0.052378178 -0.0070626903 -0.08223659 0.047638807 -0.044575248 0.02634536
0.044725776 -0.00049976166 -0.035383984 -0.021065965 0.018936263 0.03381656 0.045825858 0.049999867
0.04976158 -0.06273267 -0.08821691 -0.04939239 0.020822821 -0.06604959 -0.0018197891 -0.049496558
0.070605494 -0.0048967777 0.010104967 0.022582788 0.041209612 -0.07806931 0.0070962873 -0.029177416
0.052233096 0.08965437 0.015602646 0.04258329 0.026626445 0.02789798 -0.031221936 -0.09912692
0.07465997 0.07423592 0.0847115 -0.067894325 -0.050217755 -0.03825765 0.08138446 -0.07727889
0.010807752 0.018411985 0.00915144 -0.0836706 -0.0472577 -0.029087508 0.0029021904 -0.0715408
-0.03689407 -0.027354999 -0.031335194 -0.014483735 -0.0508384 0.021728862 -0.0527008 0.05839408
-0.083619095 -0.06806834 0.09314068 0.04197913 -0.07249189 -0.02316739 0.09777521 0.06084455
-0.03851988 0.035325438 0.0048151785 0.054330062 0.024736159 -0.031204883 0.008004394 -0.045719206
-0.045936506 -0.009933436 -0.072263524 -0.006851714 0.041365057 0.079208605 -0.034095168 0.019245254
-0.08848981 -0.06466323 -0.06630881 -0.04900311 -0.071432255 0.004814015 0.002352308 -0.0380172
0.052407954 0.0013338649 -0.07771331 0.059685238 0.035719596 0.0057524326 -0.089302585 0.027470289
-0.060272083 0.031714737 0.0012259767 0.04669595 0.10918597 -0.10036625 0.09479652 -0.03521202
0.032528218 0.016593799 -0.027934384 -0.16139105 -0.085067354 0.003188037 0.037705705 -0.07658148
0.057185024 -0.1069931 -0.07027879 -0.05909529 0.026665973 -0.15199783 0.005094838 0.04553642
0.00568393 -0.12112677 -0.10212853 0.030645842 0.023670092 -0.010881981 -0.06726606 -0.07792434
0.090826206 0.015423313 -0.063381165 -0.0073153195 0.05269064 -0.032380853 0.04016807 0.008262398
0.049324345 0.0676058 -0.009221302 0.050897293 0.113515705 0.12434797 -0.0064385342 -0.114578344
-0.024080142 -0.080537654 0.04260432 -0.07144333 -0.12608948 -0.10279729 0.059718437 -0.2106034
0.0042117457 0.0050298846 -0.013100799 0.054115407 0.09472004 -0.06339082 0.007870461 0.071447015
-0.0410049 0.06036936 -0.15039821 0.06335705 -0.07967537 0.08799926 -0.05071119 -0.05039712
0.030754497 0.08249111 -0.010327136 0.07150824 -0.06320548 -0.03531266 0.06928121 -0.082049064
-0.05320636 0.020490276 -0.009794884 -0.017662652 0.2109481 -0.041775063 -0.038175333 0.03235942
0.049232233 0.050825145 0.0021983248 -0.034280363 0.046178814 -0.0005635153 0.10201527 -0.04215616
-0.018024962 0.019369949 -0.17148633 0.0711983 -0.038065847 0.12036607 -0.09178532 -0.121812545
-0.07300796 0.15653494 -0.022535775 -0.07015938 -0.04083674 -0.11276045 -0.1024561 -0.027934184
-0.039557192 0.003915889 0.115806215 -0.021497803 -0.05506114 -0.04953809 0.030355044 0.10530964
-0.011448656 -0.034587257 0.02873116 0.052757803 0.0038771783 -0.055096027 -0.07478277 -0.056817107
-0.06751535 0.04586011 -0.07111807 0.013210489 0.06548204 0.00991288 0.015028244 -0.01657299
00000000: abb1 873d 577a 613b 78e5 873d 4915 a5bd
00000010: 9651 773d a7fc 79bd 4a65 203d 8fc1 803d
00000020: 9e04 5c3d c041 3dbd d02e 7fbd 31dc 8fbd
00000030: 5a60 a1bd 0c67 b1bd 1816 90bc 000f acbc
00000040: 0afd 3f3c cb11 7abd 808a 563d 246e e7bb
00000050: a86b a8bd e920 433d 8994 36bd 39d2 d73c
00000060: 6032 373d 7002 03ba ccee 10bd 8892 acbc
00000070: 3920 9b3c 3c83 0a3d e5b3 3b3d a9cc 4c3d
00000080: ccd2 4b3d fc79 80bd 11ab b4bd ad4f 4abd
00000090: 9f94 aa3c 0245 87bd fd85 eeba e7bc 4abd
000000a0: 9d99 903d 2675 a0bb 4e8f 253c 8aff b83c
000000b0: 69cb 283d cde2 9fbd f987 e83b 7a05 efbc
000000c0: 5ff2 553d b69c b73d 3ea2 7f3c d16b 2e3d
000000d0: b41f da3c 4e8a e43c 25c5 ffbc 0e03 cbbd
000000e0: 54e7 983d 0109 983d 397d ad3d 2e0c 8bbd
000000f0: 22b1 4dbd 0eb4 1cbd e5ac a63d 6544 9ebd
00000100: ff12 313c bbd4 963c ecef 153c 7e5b abbd
00000110: 4a91 41bd ed48 eebc ad32 3e3b fc83 92bd
00000120: 3d1e 17bd 9717 e0bc 5559 00bd 304d 6dbc
00000130: ed3b 50bd ba00 b23c cbdc 57bd a12e 6f3d
00000140: 7d40 abbd 6a67 8bbd 8ac0 be3d 4ff2 2b3d
00000150: a176 94bd 8ac9 bdbc 5f3e c83d 2338 793d
00000160: 06c7 1dbd 68b1 103d a5c8 9d3b 3389 5e3d
00000170: 7ca3 ca3c 62a1 ffbc dd24 033c 1044 3bbd
00000180: eb27 3cbd dabf 22bc e6fe 93bd 5884 e0bb
00000190: 686e 293d 1f38 a23d 60a7 0bbd 39a8 9d3c
000001a0: 253a b5bd 286e 84bd eacc 87bd 7cb7 48bd
000001b0: 134b 92bd e2be 9d3b 2e29 1a3b ecb7 1bbd
000001c0: b9a9 563d 14d5 ae3a 2828 9fbd 8278 743d
000001d0: b64e 123d e77e bc3b 46e4 b6bd 5f09 e13c
000001e0: dcdf 76bd 50e7 013d f4b0 a03a 4144 3f3d
000001f0: e59c df3d d28c cdbd ae24 c23d 7b3a 10bd
00000200: 4f3c 053d b8ef 873c a6d6 e4bc b243 25be
00000210: cb37 aebd 63ee 503b 4c71 1a3d c0d6 9cbd
00000220: d83a 6a3d 331f dbbd 54ee 8fbd e70d 72bd
00000230: 9972 da3c 52a5 1bbe 99f2 a63b 6684 3a3d
00000240: 4340 ba3b 5011 f8bd c328 d1bd fd0c fb3c
00000250: c8e7 c13c 564a 32bc cac2 89bd cc96 9fbd
00000260: 1703 ba3d 10b2 7c3c fccd 81bd 59b5 efbb
00000270: 24d2 573d c9a1 04bd 4687 243d 025f 073c
00000280: 5308 4a3d e974 8a3d f214 17bc ae79 503d
00000290: ec7a e83d 26aa fe3d 57fa d2bb 0da8 eabd
000002a0: b843 c5bc edf0 a4bd de81 2e3d e150 92bd
000002b0: 9a1d 01be 6387 d2bd 529b 743d 6ba8 57be
000002c0: af02 8a3b bbd1 a43b bca4 56bc 1ea8 5d3d
000002d0: 95fc c13d 0cd3 81bd 1bf3 003c d052 923d
000002e0: c1f4 27bd dd45 773d fd01 1abe 57c1 813d
000002f0: d72c a3bd f538 b43d 89b6 4fbd 366d 4ebd
00000300: dbf0 fb3c 19f1 a83d 2633 29bc ea72 923d
00000310: e071 81bd 02a4 10bd 4fe3 8d3d 5709 a8bd
00000320: eaee 59bd 39db a73c b97a 20bc 44b1 90bc
00000330: c702 583e 541c 2bbd bd5d 1cbd 508b 043d
00000340: bda7 493d 072e 503d c511 103b 9169 0cbd
00000350: ff25 3d3d dfb8 13ba 62ed d03d f0ab 2cbd
00000360: 16a9 93bc baad 9e3c 1d9a 2fbe 6ad0 913d
00000370: efea 1bbd 7c82 f63d f1f9 bbbd db78 f9bd
00000380: 3385 95bd b24a 203e f29c b8bc b9af 8fbd
00000390: 6d44 27bd f3ee e6bd 81d4 d1bd 3bd6 e4bc
000003a0: b906 22bd dc50 803b cf2b ed3d 291c b0bc
000003b0: ca87 61bd 74e8 4abd 24ab f83c 95ac d73d
000003c0: 2593 3bbc 5eab 0dbd 9c5d eb3c 9118 583d
000003d0: 4218 7e3b 5fac 61bd b527 99bd 0eb9 68bd
000003e0: 7d45 8abd d0d7 3b3d 5aa6 91bd cf70 583c
000003f0: 731b 863d a269 223c 0639 763c 14c4 87bc

fc2.bias f4 [84]
-0.04674979 0.18297544 -0.027302118 -0.028326837 -0.09715381 -0.0019956646 0.149741 -0.04151613
0.30727628 0.20331468 0.20063432 0.010405436 -0.06769539 -0.045251537 -0.079468966 0.24760193
0.034756012 0.12463615 0.13216344 0.2694448 -0.0034324778 0.07098291 -0.058422208 -0.10315031
0.32587782 0.04736671 -0.027196344 -0.049065452 0.1735272 -0.06650055 -0.049189243 0.291921
-0.11967315 0.078806415 0.08973785 -0.04709285 -0.042574268 0.014548063 0.013360326 0.008507728
0.12246769 0.17184898 0.082040384 0.023278337 -0.05675339 0.05106733 0.36229634 0.053101808
-0.008736773 -0.07269556 -0.043992218 -0.020644933 -0.08748721 0.22805695 -0.109976284 -0.048404947
0.14125775 0.10910708 0.27829194 0.05502401 0.03608167 0.009224792 0.06833873 -0.08599186
-0.15662017 0.21847466 -0.051120702 0.0011853697 0.45495263 0.005691997 0.08774415 0.35750982
0.18723968 -0.049768314 -0.1456207 0.18180454 -0.020248285 0.15509546 0.31601685 0.018874608
0.20793818 0.15519865 0.051627707 -0.028936602
00000000: b57c 3fbd ea5d 3b3e b1a8 dfbc af0d e8bc
00000010: 94f8 c6bd b2c9 02bb b455 193e d10c 2abd
00000020: 5153 9d3e b931 503e 1573 4d3e 907b 2a3c
00000030: e1a3 8abd ad59 39bd a0c0 a2bd 5c8b 7d3e
00000040: 525c 0e3d 3d41 ff3d da55 073e abf4 893e
00000050: 6cf3 60bb 7d5f 913d 204c 6fbd 7840 d3bd
00000060: 75d9 a63e 9803 423d deca debc dbf8 48bd
00000070: 1db1 313e 7131 88bd a97a 49bd ab76 953e
00000080: 3217 f5bd 4265 a13d 7ac8 b73d 6fe4 40bd
00000090: 5b62 2ebd 005b 6e3c 45e5 5a3c ff63 0b3c
000000a0: 57d0 fa3d 2ef9 2f3e ca04 a83d 36b2 be3c
000000b0: 3e76 68bd fa2b 513d e87e b93e 4881 593d
000000c0: af24 0fbc 69e1 94bd 2f31 34bd 901f a9bc
000000d0: 7f2c b3bd c387 693e 3f3b e1bd 4444 46bd
000000e0: dfa5 103e 8873 df3d 487c 8e3e db60 613d
000000f0: 60ca 133d 9523 173c 2df5 8b3d 801c b0bd
00000100: 0a61 20be d2b7 5f3e f163 51bd 685e 9b3a
00000110: 8def e83e ee83 ba3b 34b3 b33d 870b b73e
00000120: c2bb 3f3e dcd9 4bbd 981d 15be f82a 3a3e
00000130: bbdf a5bc 58d1 1e3e f6cc a13e ec9e 9a3c
00000140: bfed 543e 65ec 1e3e 9377 533d 740c edbc

fc3.weight f4 [10, 84]
-0.03631929 0.15940008 0.01993442 -0.06416526 0.03180306 0.035414103 0.04859524 0.10447863
-0.015893444 0.025077693 -0.2162217 0.22741063 -0.015914569 0.020992432 -0.024884094 0.10207351
0.22568609 -0.03768241 0.014719526 -0.016080685 0.20397276 -0.0073365434 0.058619462 0.0007902916
-0.14140923 -0.018732252 0.120091625 -0.118691646 -0.19617064 0.16846482 -0.09010079 -0.105945095
0.13809368 0.16711183 0.053812362 -0.11229963 0.022168478 0.04674743 0.24700771 -0.14595601
0.03559939 -0.25145727 -0.06908853 0.11444932 0.10346692 0.18123332 -0.30441374 0.10521638
-0.04371411 0.10130158 0.025003731 -0.05032942 0.07243442 0.0286548 0.14568399 0.018980935
0.024449203 -0.17116581 -0.0697424 0.19757763 0.025799965 -0.008181938 -0.047821272 0.015233643
0.11291989 0.14214969 0.040421378 0.019396504 -0.007354684 0.30059683 -0.096068 -0.07156688
0.05484171 0.20487787 -0.031341087 0.04210852 0.059681498 0.23876539 -0.26880318 -0.0614557
0.11576327 0.24201365 0.07767122 -0.09440483 0.100738384 -0.18755254 -0.049535267 -0.07049253
0.33296514 0.07848579 -0.031512517 -0.09557748 -0.0198586 0.026494766 -0.22299023 -0.029694943
0.03540138 0.09188169 -0.096278496 0.012862431 0.034271393 0.10108462 0.19211738 -0.31183508
0.3447117 0.14798865 0.06930634 0.1480755 -0.056262054 -0.1372232 -0.17040516 0.044973522
0.04482791 0.35009623 0.10141012 -0.030762335 -0.105491556 -0.047274295 -0.09068517 0.279638
0.0038882517 -0.11725193 -0.007584359 -0.060006622 -0.057662774 -0.25729024 0.0930966 -0.10329776
0.08310813 -0.017036948 -0.14110006 0.21527836 0.058065064 0.10374293 0.111531846 -0.0511208
0.04740523 -0.13914466 0.086387284 -0.09146579 -0.009533794 0.0057932334 -0.115814805 -0.20474975
-0.08637913 0.22725414 -0.18630761 0.09515348 0.031188764 0.10890216 0.062905334 -0.09923544
-0.15140487 0.15596782 -0.17675087 -0.21183209 -0.07290884 -0.056497715 0.077844575 -0.22796507
-0.10575783 -0.049316436 0.13094631 0.15008134 -0.17026815 0.005940431 0.013400022 0.033508647
-0.054880936 0.26436433 0.057518736 -0.06542066 -0.0023044192 -0.15708023 0.21028757 0.16404401
0.25686195 -0.21385123 -0.111462094 0.18841591 0.08184176 -0.01293252 0.09794147 -0.20508058
-0.039535254 -0.06384111 -0.16397826 0.085750125 -0.123117015 -0.12878816 -0.016014133 -0.06308814
0.11884958 0.2776466 0.18336391 0.09832223 -0.06097718 -0.16355546 -0.02497621 0.05078287
-0.033323333 -0.027186211 -0.03415892 -0.18587121 -0.05452024 -0.0082418565 -0.016296852 0.15810196
0.024128629 0.022476256 0.022342091 -0.016728507 0.021867746 -0.04607286 0.28608218 0.043524414
0.021531705 0.038795702 -0.00956615 -0.0052940827 -0.076889575 0.23203737 -0.07701305 -0.08368881
-0.08290408 0.049922023 0.09444151 0.1383514 -0.031422324 -0.045680705 0.28636104 -0.10356467
0.04121298 -0.1166732 -0.029425569 0.24113703 -0.01223884 0.12456316 0.21416396 0.17165309
-0.076540485 0.15247159 -0.06905399 -0.0058269887 0.060501054 -0.008738262 -0.027781727 0.030076105
0.19964445 0.14619339 -0.043439187 0.07067576 -0.06348328 -0.11739073 -0.054197676 0.025002386
00000000: 89c3 14bd c639 233e 824d a33c 1369 83bd
00000010: ed43 023d 610e 113d cd0b 473d e4f8 d53d
00000020: f832 82bc bc6f cd3c 3969 5dbe 55de 683e
00000030: 455f 82bc 52f8 ab3c bad9 cbbc eb0b d13d
00000040: 411a 673e df58 1abd 2b2a 713c a4bb 83bc
00000050: 3cde 503e 6367 f0bb f61a 703d 922b 4f3a
00000060: 95cd 10be 6174 99bc 99f2 f53d 9b14 f3bd
00000070: f5e0 48be 0b82 2c3e c386 b8bd bef9 d8bd
00000080: 6e68 0d3e 5d1f 2b3e 5a6a 5c3d 59fd e5bd
00000090: ab9a b53c 3c7a 3f3d 97ef 7c3e 7e75 15be
000000a0: aad0 113d 02bf 80be 4a7e 8dbd 6864 ea3d
000000b0: 77e6 d33d 3a95 393e 1edc 9bbe af7b d73d
000000c0: 910d 33bd 3477 cf3d a0d4 cc3c 3926 4ebd
000000d0: 7f58 943d 79bd ea3c 2f2e 153e e87d 9b3c
000000e0: b249 c83c 1746 2fbe 1ad5 8ebd ca51 4a3e
000000f0: 735a d33c 890d 06bc 3de0 43bd 8896 793c
00000100: 8b42 e73d b08f 113e e390 253d 6be5 9e3c
00000110: 90ff f0bb d4e7 993e 4dbf c4bd a891 92bd
00000120: b3a1 603d 81cb 513e 835f 00bd fc79 2c3d
00000130: 9674 743d ea7e 743e 92a0 89be f9b8 7bbd
00000140: 4b15 ed3d 6dd2 773e 1712 9f3d 5257 c1bd
00000150: ed4f ce3d c60d 40be 7ee5 4abd 635e 90bd
00000160: 687a aa3e 28bd a03d 4513 01bd 20be c3bd
00000170: 81ae a2bc 8d0b d93c 8d57 64be cf42 f3bc
00000180: 0a01 113d 782c bc3d a92d c5bd f2bc 523c
00000190: 2960 0c3d 7405 cf3d 6bba 443e d9a8 9fbe
000001a0: 0d7e b03e 568a 173e 7bf0 8d3d 1ba1 173e
000001b0: 0a73 66bd 3d84 0cbe b17e 2ebe 2836 383d
000001c0: 789d 373d d03f b33e 1cb0 cf3d 4b01 fcbc
000001d0: f50b d8bd b1a2 41bd 25b9 b9bd b62c 8f3e
000001e0: 0ad2 7e3b c821 f0bd 3786 f8bb 81c9 75bd
000001f0: cd2f 6cbd 8cbb 83be 6ea9 be3d c78d d3bd
00000200: 9834 aa3d 1291 8bbc 897c 10be ee71 5c3e
00000210: a2d5 6d3d 2c77 d43d cf6a e43d 0b64 51bd
00000220: fd2b 423d f07b 0ebe d1eb b03d 6b52 bbbd
00000230: a133 1cbc 2ad5 bd3b 5030 edbd eba9 51be
00000240: 8be7 b0bd 4fb5 683e 6cc7 3ebe d4df c23d
00000250: 947f ff3c 1808 df3d 83d4 803d f33b cbbd
00000260: e109 1bbe 07b6 1f3e 2efe 34be 83ea 58be
00000270: 3b51 95bd 266a 67bd fa6c 9f3d ad6f 69be
00000280: 9097 d8bd 0800 4abd ca16 063e ecae 193e
00000290: c65a 2ebe f2a7 c23b c48b 5b3c 5d40 093d
000002a0: d5ca 60bd c35a 873e c498 6b3d 44fb 85bd
000002b0: bd05 17bb a4d9 20be a055 573e 27fb 273e
000002c0: 6983 833e d1fb 5abe 3d46 e4bd 1af0 403e
000002d0: a79c a73d ece2 53bc 8a95 c83d a500 52be
000002e0: b8ef 21bd 21bf 82bd ebe9 27be c39d af3d
000002f0: c624 fcbd 0be1 03be 1230 83bc 5b34 81bd
00000300: 6967 f33d b227 8e3e c0c3 3b3e 2a5d c93d
00000310: 35c3 79bd 157b 27be e99a ccbc b301 503d
00000320: 0c7e 08bd 9eb5 debc 39ea 0bbd 0655 3ebe
00000330: 9d50 5fbd da08 07bc fa80 85bc 7be5 213e
00000340: 67a9 c53c 2020 b83c c306 b73c 390a 89bc
00000350: fd23 b33c e5b6 3cbd 5d79 923e a846 323d
00000360: 4263 b03c 3ee8 1e3d 57bb 1cbc fc79 adbb
00000370: 4878 9dbd 349b 6d3e 05b9 9dbd 0a65 abbd
00000380: 9dc9 a9bd 097b 4c3d 8d6a c13d fdab 0d3e
00000390: b2b4 00bd b11b 3bbd ea9d 923e b719 d4bd
000003a0: f1ce 283d 5cf2 eebd e40d f1bc a0ec 763e
000003b0: 6a85 48bc f81a ff3d cc4d 5b3e d4c5 2f3e
000003c0: 42c1 9cbd 8321 1c3e 2e6c 8dbd 53f0 bebb
000003d0: f4cf 773d ed2a 0fbc 8196 e3bc 2a62 f63c
000003e0: 986f 4c3e b8b3 153e 4aed 31bd 74be 903d
000003f0: 8603 82bd 8d6a f0bd 62fe 5dbd ced1 cc3c

fc3.bias f4 [10]
-0.47997603 -0.4826514 0.17233731 0.40401483 0.37491265 0.06958106 0.31800625 -0.19007587
0.32999146 -0.29016158
00000000: 6bbf f5be 161e f7be 3179 303e 08db ce3e
00000010: 8df4 bf3e 8480 8e3d b7d1 a23e 40a3 42be
00000020: a4f4 a83e 0f90 94be
